ST Edge AI Core v2.1.0-20194 329b0e98d
Created date          : 2025-06-20 09:39:50
Parameters            : generate --target stm32f4 --name network -m E:/Study/DA1/MobileNet_imp_STM_test/mobilenet_v2_0.35_128_fft_int8.tflite-STM32F429I-DISC1-project/STM32F429I-DISC1/mobilenet_v2_0.35_128_fft_int8.tflite --compression none --verbosity 1 --no-inputs-allocation -O ram --no-outputs-allocation --memory-pool C:\Users\PC\AppData\Local\Temp\mxAI_workspace45139163883006321421837365096519\mempools.json --workspace C:/Users/PC/AppData/Local/Temp/mxAI_workspace45139163883006321421837365096519 --output C:/Users/PC/.stm32cubemx/network_output

Exec/report summary (generate)
-----------------------------------------------------------------------------------------------------------------------------------------------------------------------------------
model file         :   E:\Study\DA1\MobileNet_imp_STM_test\mobilenet_v2_0.35_128_fft_int8.tflite-STM32F429I-DISC1-project\STM32F429I-DISC1\mobilenet_v2_0.35_128_fft_int8.tflite   
type               :   tflite                                                                                                                                                      
c_name             :   network                                                                                                                                                     
compression        :   none                                                                                                                                                        
options            :   multi-heaps                                                                                                                                                 
optimization       :   ram                                                                                                                                                         
target/series      :   stm32f4                                                                                                                                                     
memory pool        :   C:\Users\PC\AppData\Local\Temp\mxAI_workspace45139163883006321421837365096519\mempools.json                                                                 
workspace dir      :   C:\Users\PC\AppData\Local\Temp\mxAI_workspace45139163883006321421837365096519                                                                               
output dir         :   C:\Users\PC\.stm32cubemx\network_output                                                                                                                     
model_fmt          :   sa/ua per tensor                                                                                                                                            
model_name         :   mobilenet_v2_0_35_128_fft_int8                                                                                                                              
model_hash         :   0xb929379f2a0799f906b109a192dde7c6                                                                                                                          
params #           :   390,369 items (401.85 KiB)                                                                                                                                  
-----------------------------------------------------------------------------------------------------------------------------------------------------------------------------------
input 1/1          :   'serving_default_input_10', uint8(1x128x128x3), 48.00 KBytes, QLinear(0.007843138,127,uint8), user                                                          
output 1/1         :   'conversion_70', f32(1x1), 4 Bytes, user                                                                                                                    
macc               :   19,094,660                                                                                                                                                  
weights (ro)       :   411,492 B (401.85 KiB) (1 segment) / -1,149,984(-73.6%) vs float model                                                                                      
activations (rw)   :   266,292 B (260.05 KiB) (1 segment)                                                                                                                          
ram (total)        :   315,448 B (308.05 KiB) = 266,292 + 49,152 + 4                                                                                                               
-----------------------------------------------------------------------------------------------------------------------------------------------------------------------------------
 
 Memory-pools summary (activations/ domain)
 -------------------------------------------- -------- -------------------------- --------- 
 name                                         id       used                       buffer#   
 -------------------------------------------- -------- -------------------------- --------- 
 POOL_EXTERNAL_SDRAM                          0        260.05 KiB (3.2%)          119       
 POOL_0_RAM                                   unused   -                          0         
 POOL_1_CCMRAM                                unused   -                          0         
 weights_array                                3        401.85 KiB (41149200.0%)   106       
 serving_default_input_10_output_array_pool   4        48.00 KiB (4915200.0%)     1         
 conversion_70_output_array_pool              5        4 B (400.0%)               1         
 -------------------------------------------- -------- -------------------------- --------- 
 Warning: ['POOL_0_RAM', 'POOL_1_CCMRAM'] memory pool s not used

Model name - mobilenet_v2_0_35_128_fft_int8
------ ------------------------------------------------ ----------------------- ----------------- ----------- -------------------------------- --- ----------------- ------------------- -------------------- 
m_id   layer (type,original)                            oshape                  param/size               macc                     connected to   | c_size            c_macc              c_type               
------ ------------------------------------------------ ----------------------- ----------------- ----------- -------------------------------- --- ----------------- ------------------- -------------------- 
0      serving_default_input_10 (Input, )               [b:1,h:128,w:128,c:3]                                                                    |                   +98,304(+100.0%)    Conversion_[0]       
       conversion_0 (Conversion, QUANTIZE)              [b:1,h:128,w:128,c:3]                          98,304         serving_default_input_10   |                   -98,304(-100.0%)    
------ ------------------------------------------------ ----------------------- ----------------- ----------- -------------------------------- --- ----------------- ------------------- -------------------- 
1      conv2d_1 (Conv2D, CONV_2D)                       [b:1,h:64,w:64,c:16]    448/496             1,769,488                     conversion_0   |                                       Conv2D_[1]           
       nl_1_nl (Nonlinearity, CONV_2D)                  [b:1,h:64,w:64,c:16]                           65,536                         conv2d_1   |                   -65,536(-100.0%)    
------ ------------------------------------------------ ----------------------- ----------------- ----------- -------------------------------- --- ----------------- ------------------- -------------------- 
2      conv2d_2 (Conv2D, DEPTHWISE_CONV_2D)             [b:1,h:64,w:64,c:16]    160/208               589,840                          nl_1_nl   |                                       Conv2D_[2]           
       nl_2_nl (Nonlinearity, DEPTHWISE_CONV_2D)        [b:1,h:64,w:64,c:16]                           65,536                         conv2d_2   |                   -65,536(-100.0%)    
------ ------------------------------------------------ ----------------------- ----------------- ----------- -------------------------------- --- ----------------- ------------------- -------------------- 
3      conv2d_3 (Conv2D, CONV_2D)                       [b:1,h:64,w:64,c:8]     136/160               524,296                          nl_2_nl   |                                       Conv2D_[3]           
------ ------------------------------------------------ ----------------------- ----------------- ----------- -------------------------------- --- ----------------- ------------------- -------------------- 
4      conv2d_4 (Conv2D, CONV_2D)                       [b:1,h:64,w:64,c:48]    432/576             1,572,912                         conv2d_3   |                                       Conv2D_[4]           
       nl_4_nl (Nonlinearity, CONV_2D)                  [b:1,h:64,w:64,c:48]                          196,608                         conv2d_4   |                   -196,608(-100.0%)   
------ ------------------------------------------------ ----------------------- ----------------- ----------- -------------------------------- --- ----------------- ------------------- -------------------- 
5      pad_5 (Pad, PAD)                                 [b:1,h:65,w:65,c:48]                                                           nl_4_nl   | +624(+100.0%)     +442,416(+100.0%)   Conv2D_[5]           
------ ------------------------------------------------ ----------------------- ----------------- ----------- -------------------------------- --- ----------------- ------------------- -------------------- 
6      conv2d_6 (Conv2D, DEPTHWISE_CONV_2D)             [b:1,h:32,w:32,c:48]    480/624               442,416                            pad_5   | -624(-100.0%)     -442,416(-100.0%)   
       nl_6_nl (Nonlinearity, DEPTHWISE_CONV_2D)        [b:1,h:32,w:32,c:48]                           49,152                         conv2d_6   |                   -49,152(-100.0%)    
------ ------------------------------------------------ ----------------------- ----------------- ----------- -------------------------------- --- ----------------- ------------------- -------------------- 
7      conv2d_7 (Conv2D, CONV_2D)                       [b:1,h:32,w:32,c:8]     392/416               393,224                          nl_6_nl   |                                       Conv2D_[6]           
------ ------------------------------------------------ ----------------------- ----------------- ----------- -------------------------------- --- ----------------- ------------------- -------------------- 
8      conv2d_8 (Conv2D, CONV_2D)                       [b:1,h:32,w:32,c:48]    432/576               393,264                         conv2d_7   |                                       Conv2D_[7]           
       nl_8_nl (Nonlinearity, CONV_2D)                  [b:1,h:32,w:32,c:48]                           49,152                         conv2d_8   |                   -49,152(-100.0%)    
------ ------------------------------------------------ ----------------------- ----------------- ----------- -------------------------------- --- ----------------- ------------------- -------------------- 
9      conv2d_9 (Conv2D, DEPTHWISE_CONV_2D)             [b:1,h:32,w:32,c:48]    480/624               442,416                          nl_8_nl   |                                       Conv2D_[8]           
       nl_9_nl (Nonlinearity, DEPTHWISE_CONV_2D)        [b:1,h:32,w:32,c:48]                           49,152                         conv2d_9   |                   -49,152(-100.0%)    
------ ------------------------------------------------ ----------------------- ----------------- ----------- -------------------------------- --- ----------------- ------------------- -------------------- 
10     conv2d_10 (Conv2D, CONV_2D)                      [b:1,h:32,w:32,c:8]     392/416               393,224                          nl_9_nl   |                                       Conv2D_[9]           
------ ------------------------------------------------ ----------------------- ----------------- ----------- -------------------------------- --- ----------------- ------------------- -------------------- 
11     eltwise_11 (Eltwise, ADD)                        [b:1,h:32,w:32,c:8]                             8,192                         conv2d_7   |                                       Eltwise/add_[10]     
                                                                                                                                     conv2d_10   | 
------ ------------------------------------------------ ----------------------- ----------------- ----------- -------------------------------- --- ----------------- ------------------- -------------------- 
12     conv2d_12 (Conv2D, CONV_2D)                      [b:1,h:32,w:32,c:48]    432/576               393,264                       eltwise_11   |                                       Conv2D_[11]          
       nl_12_nl (Nonlinearity, CONV_2D)                 [b:1,h:32,w:32,c:48]                           49,152                        conv2d_12   |                   -49,152(-100.0%)    
------ ------------------------------------------------ ----------------------- ----------------- ----------- -------------------------------- --- ----------------- ------------------- -------------------- 
13     pad_13 (Pad, PAD)                                [b:1,h:33,w:33,c:48]                                                          nl_12_nl   | +624(+100.0%)     +110,640(+100.0%)   Conv2D_[12]          
------ ------------------------------------------------ ----------------------- ----------------- ----------- -------------------------------- --- ----------------- ------------------- -------------------- 
14     conv2d_14 (Conv2D, DEPTHWISE_CONV_2D)            [b:1,h:16,w:16,c:48]    480/624               110,640                           pad_13   | -624(-100.0%)     -110,640(-100.0%)   
       nl_14_nl (Nonlinearity, DEPTHWISE_CONV_2D)       [b:1,h:16,w:16,c:48]                           12,288                        conv2d_14   |                   -12,288(-100.0%)    
------ ------------------------------------------------ ----------------------- ----------------- ----------- -------------------------------- --- ----------------- ------------------- -------------------- 
15     conv2d_15 (Conv2D, CONV_2D)                      [b:1,h:16,w:16,c:16]    784/832               196,624                         nl_14_nl   |                                       Conv2D_[13]          
------ ------------------------------------------------ ----------------------- ----------------- ----------- -------------------------------- --- ----------------- ------------------- -------------------- 
16     conv2d_16 (Conv2D, CONV_2D)                      [b:1,h:16,w:16,c:96]    1,632/1,920           393,312                        conv2d_15   |                                       Conv2D_[14]          
       nl_16_nl (Nonlinearity, CONV_2D)                 [b:1,h:16,w:16,c:96]                           24,576                        conv2d_16   |                   -24,576(-100.0%)    
------ ------------------------------------------------ ----------------------- ----------------- ----------- -------------------------------- --- ----------------- ------------------- -------------------- 
17     conv2d_17 (Conv2D, DEPTHWISE_CONV_2D)            [b:1,h:16,w:16,c:96]    960/1,248             221,280                         nl_16_nl   |                                       Conv2D_[15]          
       nl_17_nl (Nonlinearity, DEPTHWISE_CONV_2D)       [b:1,h:16,w:16,c:96]                           24,576                        conv2d_17   |                   -24,576(-100.0%)    
------ ------------------------------------------------ ----------------------- ----------------- ----------- -------------------------------- --- ----------------- ------------------- -------------------- 
18     conv2d_18 (Conv2D, CONV_2D)                      [b:1,h:16,w:16,c:16]    1,552/1,600           393,232                         nl_17_nl   |                                       Conv2D_[16]          
------ ------------------------------------------------ ----------------------- ----------------- ----------- -------------------------------- --- ----------------- ------------------- -------------------- 
19     eltwise_19 (Eltwise, ADD)                        [b:1,h:16,w:16,c:16]                            4,096                        conv2d_15   |                                       Eltwise/add_[17]     
                                                                                                                                     conv2d_18   | 
------ ------------------------------------------------ ----------------------- ----------------- ----------- -------------------------------- --- ----------------- ------------------- -------------------- 
20     conv2d_20 (Conv2D, CONV_2D)                      [b:1,h:16,w:16,c:96]    1,632/1,920           393,312                       eltwise_19   |                                       Conv2D_[18]          
       nl_20_nl (Nonlinearity, CONV_2D)                 [b:1,h:16,w:16,c:96]                           24,576                        conv2d_20   |                   -24,576(-100.0%)    
------ ------------------------------------------------ ----------------------- ----------------- ----------- -------------------------------- --- ----------------- ------------------- -------------------- 
21     conv2d_21 (Conv2D, DEPTHWISE_CONV_2D)            [b:1,h:16,w:16,c:96]    960/1,248             221,280                         nl_20_nl   |                                       Conv2D_[19]          
       nl_21_nl (Nonlinearity, DEPTHWISE_CONV_2D)       [b:1,h:16,w:16,c:96]                           24,576                        conv2d_21   |                   -24,576(-100.0%)    
------ ------------------------------------------------ ----------------------- ----------------- ----------- -------------------------------- --- ----------------- ------------------- -------------------- 
22     conv2d_22 (Conv2D, CONV_2D)                      [b:1,h:16,w:16,c:16]    1,552/1,600           393,232                         nl_21_nl   |                                       Conv2D_[20]          
------ ------------------------------------------------ ----------------------- ----------------- ----------- -------------------------------- --- ----------------- ------------------- -------------------- 
23     eltwise_23 (Eltwise, ADD)                        [b:1,h:16,w:16,c:16]                            4,096                       eltwise_19   |                                       Eltwise/add_[21]     
                                                                                                                                     conv2d_22   | 
------ ------------------------------------------------ ----------------------- ----------------- ----------- -------------------------------- --- ----------------- ------------------- -------------------- 
24     conv2d_24 (Conv2D, CONV_2D)                      [b:1,h:16,w:16,c:96]    1,632/1,920           393,312                       eltwise_23   |                                       Conv2D_[22]          
       nl_24_nl (Nonlinearity, CONV_2D)                 [b:1,h:16,w:16,c:96]                           24,576                        conv2d_24   |                   -24,576(-100.0%)    
------ ------------------------------------------------ ----------------------- ----------------- ----------- -------------------------------- --- ----------------- ------------------- -------------------- 
25     pad_25 (Pad, PAD)                                [b:1,h:17,w:17,c:96]                                                          nl_24_nl   | +1,248(+100.0%)   +55,392(+100.0%)    Conv2D_[23]          
------ ------------------------------------------------ ----------------------- ----------------- ----------- -------------------------------- --- ----------------- ------------------- -------------------- 
26     conv2d_26 (Conv2D, DEPTHWISE_CONV_2D)            [b:1,h:8,w:8,c:96]      960/1,248              55,392                           pad_25   | -1,248(-100.0%)   -55,392(-100.0%)    
       nl_26_nl (Nonlinearity, DEPTHWISE_CONV_2D)       [b:1,h:8,w:8,c:96]                              6,144                        conv2d_26   |                   -6,144(-100.0%)     
------ ------------------------------------------------ ----------------------- ----------------- ----------- -------------------------------- --- ----------------- ------------------- -------------------- 
27     conv2d_27 (Conv2D, CONV_2D)                      [b:1,h:8,w:8,c:24]      2,328/2,400           147,480                         nl_26_nl   |                                       Conv2D_[24]          
------ ------------------------------------------------ ----------------------- ----------------- ----------- -------------------------------- --- ----------------- ------------------- -------------------- 
28     conv2d_28 (Conv2D, CONV_2D)                      [b:1,h:8,w:8,c:144]     3,600/4,032           221,328                        conv2d_27   |                                       Conv2D_[25]          
       nl_28_nl (Nonlinearity, CONV_2D)                 [b:1,h:8,w:8,c:144]                             9,216                        conv2d_28   |                   -9,216(-100.0%)     
------ ------------------------------------------------ ----------------------- ----------------- ----------- -------------------------------- --- ----------------- ------------------- -------------------- 
29     conv2d_29 (Conv2D, DEPTHWISE_CONV_2D)            [b:1,h:8,w:8,c:144]     1,440/1,872            83,088                         nl_28_nl   |                                       Conv2D_[26]          
       nl_29_nl (Nonlinearity, DEPTHWISE_CONV_2D)       [b:1,h:8,w:8,c:144]                             9,216                        conv2d_29   |                   -9,216(-100.0%)     
------ ------------------------------------------------ ----------------------- ----------------- ----------- -------------------------------- --- ----------------- ------------------- -------------------- 
30     conv2d_30 (Conv2D, CONV_2D)                      [b:1,h:8,w:8,c:24]      3,480/3,552           221,208                         nl_29_nl   |                                       Conv2D_[27]          
------ ------------------------------------------------ ----------------------- ----------------- ----------- -------------------------------- --- ----------------- ------------------- -------------------- 
31     eltwise_31 (Eltwise, ADD)                        [b:1,h:8,w:8,c:24]                              1,536                        conv2d_27   |                                       Eltwise/add_[28]     
                                                                                                                                     conv2d_30   | 
------ ------------------------------------------------ ----------------------- ----------------- ----------- -------------------------------- --- ----------------- ------------------- -------------------- 
32     conv2d_32 (Conv2D, CONV_2D)                      [b:1,h:8,w:8,c:144]     3,600/4,032           221,328                       eltwise_31   |                                       Conv2D_[29]          
       nl_32_nl (Nonlinearity, CONV_2D)                 [b:1,h:8,w:8,c:144]                             9,216                        conv2d_32   |                   -9,216(-100.0%)     
------ ------------------------------------------------ ----------------------- ----------------- ----------- -------------------------------- --- ----------------- ------------------- -------------------- 
33     conv2d_33 (Conv2D, DEPTHWISE_CONV_2D)            [b:1,h:8,w:8,c:144]     1,440/1,872            83,088                         nl_32_nl   |                                       Conv2D_[30]          
       nl_33_nl (Nonlinearity, DEPTHWISE_CONV_2D)       [b:1,h:8,w:8,c:144]                             9,216                        conv2d_33   |                   -9,216(-100.0%)     
------ ------------------------------------------------ ----------------------- ----------------- ----------- -------------------------------- --- ----------------- ------------------- -------------------- 
34     conv2d_34 (Conv2D, CONV_2D)                      [b:1,h:8,w:8,c:24]      3,480/3,552           221,208                         nl_33_nl   |                                       Conv2D_[31]          
------ ------------------------------------------------ ----------------------- ----------------- ----------- -------------------------------- --- ----------------- ------------------- -------------------- 
35     eltwise_35 (Eltwise, ADD)                        [b:1,h:8,w:8,c:24]                              1,536                       eltwise_31   |                                       Eltwise/add_[32]     
                                                                                                                                     conv2d_34   | 
------ ------------------------------------------------ ----------------------- ----------------- ----------- -------------------------------- --- ----------------- ------------------- -------------------- 
36     conv2d_36 (Conv2D, CONV_2D)                      [b:1,h:8,w:8,c:144]     3,600/4,032           221,328                       eltwise_35   |                                       Conv2D_[33]          
       nl_36_nl (Nonlinearity, CONV_2D)                 [b:1,h:8,w:8,c:144]                             9,216                        conv2d_36   |                   -9,216(-100.0%)     
------ ------------------------------------------------ ----------------------- ----------------- ----------- -------------------------------- --- ----------------- ------------------- -------------------- 
37     conv2d_37 (Conv2D, DEPTHWISE_CONV_2D)            [b:1,h:8,w:8,c:144]     1,440/1,872            83,088                         nl_36_nl   |                                       Conv2D_[34]          
       nl_37_nl (Nonlinearity, DEPTHWISE_CONV_2D)       [b:1,h:8,w:8,c:144]                             9,216                        conv2d_37   |                   -9,216(-100.0%)     
------ ------------------------------------------------ ----------------------- ----------------- ----------- -------------------------------- --- ----------------- ------------------- -------------------- 
38     conv2d_38 (Conv2D, CONV_2D)                      [b:1,h:8,w:8,c:24]      3,480/3,552           221,208                         nl_37_nl   |                                       Conv2D_[35]          
------ ------------------------------------------------ ----------------------- ----------------- ----------- -------------------------------- --- ----------------- ------------------- -------------------- 
39     eltwise_39 (Eltwise, ADD)                        [b:1,h:8,w:8,c:24]                              1,536                       eltwise_35   |                                       Eltwise/add_[36]     
                                                                                                                                     conv2d_38   | 
------ ------------------------------------------------ ----------------------- ----------------- ----------- -------------------------------- --- ----------------- ------------------- -------------------- 
40     conv2d_40 (Conv2D, CONV_2D)                      [b:1,h:8,w:8,c:144]     3,600/4,032           221,328                       eltwise_39   |                                       Conv2D_[37]          
       nl_40_nl (Nonlinearity, CONV_2D)                 [b:1,h:8,w:8,c:144]                             9,216                        conv2d_40   |                   -9,216(-100.0%)     
------ ------------------------------------------------ ----------------------- ----------------- ----------- -------------------------------- --- ----------------- ------------------- -------------------- 
41     conv2d_41 (Conv2D, DEPTHWISE_CONV_2D)            [b:1,h:8,w:8,c:144]     1,440/1,872            83,088                         nl_40_nl   |                                       Conv2D_[38]          
       nl_41_nl (Nonlinearity, DEPTHWISE_CONV_2D)       [b:1,h:8,w:8,c:144]                             9,216                        conv2d_41   |                   -9,216(-100.0%)     
------ ------------------------------------------------ ----------------------- ----------------- ----------- -------------------------------- --- ----------------- ------------------- -------------------- 
42     conv2d_42 (Conv2D, CONV_2D)                      [b:1,h:8,w:8,c:32]      4,640/4,736           294,944                         nl_41_nl   |                                       Conv2D_[39]          
------ ------------------------------------------------ ----------------------- ----------------- ----------- -------------------------------- --- ----------------- ------------------- -------------------- 
43     conv2d_43 (Conv2D, CONV_2D)                      [b:1,h:8,w:8,c:192]     6,336/6,912           393,408                        conv2d_42   |                                       Conv2D_[40]          
       nl_43_nl (Nonlinearity, CONV_2D)                 [b:1,h:8,w:8,c:192]                            12,288                        conv2d_43   |                   -12,288(-100.0%)    
------ ------------------------------------------------ ----------------------- ----------------- ----------- -------------------------------- --- ----------------- ------------------- -------------------- 
44     conv2d_44 (Conv2D, DEPTHWISE_CONV_2D)            [b:1,h:8,w:8,c:192]     1,920/2,496           110,784                         nl_43_nl   |                                       Conv2D_[41]          
       nl_44_nl (Nonlinearity, DEPTHWISE_CONV_2D)       [b:1,h:8,w:8,c:192]                            12,288                        conv2d_44   |                   -12,288(-100.0%)    
------ ------------------------------------------------ ----------------------- ----------------- ----------- -------------------------------- --- ----------------- ------------------- -------------------- 
45     conv2d_45 (Conv2D, CONV_2D)                      [b:1,h:8,w:8,c:32]      6,176/6,272           393,248                         nl_44_nl   |                                       Conv2D_[42]          
------ ------------------------------------------------ ----------------------- ----------------- ----------- -------------------------------- --- ----------------- ------------------- -------------------- 
46     eltwise_46 (Eltwise, ADD)                        [b:1,h:8,w:8,c:32]                              2,048                        conv2d_42   |                                       Eltwise/add_[43]     
                                                                                                                                     conv2d_45   | 
------ ------------------------------------------------ ----------------------- ----------------- ----------- -------------------------------- --- ----------------- ------------------- -------------------- 
47     conv2d_47 (Conv2D, CONV_2D)                      [b:1,h:8,w:8,c:192]     6,336/6,912           393,408                       eltwise_46   |                                       Conv2D_[44]          
       nl_47_nl (Nonlinearity, CONV_2D)                 [b:1,h:8,w:8,c:192]                            12,288                        conv2d_47   |                   -12,288(-100.0%)    
------ ------------------------------------------------ ----------------------- ----------------- ----------- -------------------------------- --- ----------------- ------------------- -------------------- 
48     conv2d_48 (Conv2D, DEPTHWISE_CONV_2D)            [b:1,h:8,w:8,c:192]     1,920/2,496           110,784                         nl_47_nl   |                                       Conv2D_[45]          
       nl_48_nl (Nonlinearity, DEPTHWISE_CONV_2D)       [b:1,h:8,w:8,c:192]                            12,288                        conv2d_48   |                   -12,288(-100.0%)    
------ ------------------------------------------------ ----------------------- ----------------- ----------- -------------------------------- --- ----------------- ------------------- -------------------- 
49     conv2d_49 (Conv2D, CONV_2D)                      [b:1,h:8,w:8,c:32]      6,176/6,272           393,248                         nl_48_nl   |                                       Conv2D_[46]          
------ ------------------------------------------------ ----------------------- ----------------- ----------- -------------------------------- --- ----------------- ------------------- -------------------- 
50     eltwise_50 (Eltwise, ADD)                        [b:1,h:8,w:8,c:32]                              2,048                       eltwise_46   |                                       Eltwise/add_[47]     
                                                                                                                                     conv2d_49   | 
------ ------------------------------------------------ ----------------------- ----------------- ----------- -------------------------------- --- ----------------- ------------------- -------------------- 
51     conv2d_51 (Conv2D, CONV_2D)                      [b:1,h:8,w:8,c:192]     6,336/6,912           393,408                       eltwise_50   |                                       Conv2D_[48]          
       nl_51_nl (Nonlinearity, CONV_2D)                 [b:1,h:8,w:8,c:192]                            12,288                        conv2d_51   |                   -12,288(-100.0%)    
------ ------------------------------------------------ ----------------------- ----------------- ----------- -------------------------------- --- ----------------- ------------------- -------------------- 
52     pad_52 (Pad, PAD)                                [b:1,h:9,w:9,c:192]                                                           nl_51_nl   | +2,496(+100.0%)   +27,840(+100.0%)    Conv2D_[49]          
------ ------------------------------------------------ ----------------------- ----------------- ----------- -------------------------------- --- ----------------- ------------------- -------------------- 
53     conv2d_53 (Conv2D, DEPTHWISE_CONV_2D)            [b:1,h:4,w:4,c:192]     1,920/2,496            27,840                           pad_52   | -2,496(-100.0%)   -27,840(-100.0%)    
       nl_53_nl (Nonlinearity, DEPTHWISE_CONV_2D)       [b:1,h:4,w:4,c:192]                             3,072                        conv2d_53   |                   -3,072(-100.0%)     
------ ------------------------------------------------ ----------------------- ----------------- ----------- -------------------------------- --- ----------------- ------------------- -------------------- 
54     conv2d_54 (Conv2D, CONV_2D)                      [b:1,h:4,w:4,c:56]      10,808/10,976         172,088                         nl_53_nl   |                                       Conv2D_[50]          
------ ------------------------------------------------ ----------------------- ----------------- ----------- -------------------------------- --- ----------------- ------------------- -------------------- 
55     conv2d_55 (Conv2D, CONV_2D)                      [b:1,h:4,w:4,c:336]     19,152/20,160         301,392                        conv2d_54   |                                       Conv2D_[51]          
       nl_55_nl (Nonlinearity, CONV_2D)                 [b:1,h:4,w:4,c:336]                             5,376                        conv2d_55   |                   -5,376(-100.0%)     
------ ------------------------------------------------ ----------------------- ----------------- ----------- -------------------------------- --- ----------------- ------------------- -------------------- 
56     conv2d_56 (Conv2D, DEPTHWISE_CONV_2D)            [b:1,h:4,w:4,c:336]     3,360/4,368            48,720                         nl_55_nl   |                                       Conv2D_[52]          
       nl_56_nl (Nonlinearity, DEPTHWISE_CONV_2D)       [b:1,h:4,w:4,c:336]                             5,376                        conv2d_56   |                   -5,376(-100.0%)     
------ ------------------------------------------------ ----------------------- ----------------- ----------- -------------------------------- --- ----------------- ------------------- -------------------- 
57     conv2d_57 (Conv2D, CONV_2D)                      [b:1,h:4,w:4,c:56]      18,872/19,040         301,112                         nl_56_nl   |                                       Conv2D_[53]          
------ ------------------------------------------------ ----------------------- ----------------- ----------- -------------------------------- --- ----------------- ------------------- -------------------- 
58     eltwise_58 (Eltwise, ADD)                        [b:1,h:4,w:4,c:56]                                896                        conv2d_54   |                                       Eltwise/add_[54]     
                                                                                                                                     conv2d_57   | 
------ ------------------------------------------------ ----------------------- ----------------- ----------- -------------------------------- --- ----------------- ------------------- -------------------- 
59     conv2d_59 (Conv2D, CONV_2D)                      [b:1,h:4,w:4,c:336]     19,152/20,160         301,392                       eltwise_58   |                                       Conv2D_[55]          
       nl_59_nl (Nonlinearity, CONV_2D)                 [b:1,h:4,w:4,c:336]                             5,376                        conv2d_59   |                   -5,376(-100.0%)     
------ ------------------------------------------------ ----------------------- ----------------- ----------- -------------------------------- --- ----------------- ------------------- -------------------- 
60     conv2d_60 (Conv2D, DEPTHWISE_CONV_2D)            [b:1,h:4,w:4,c:336]     3,360/4,368            48,720                         nl_59_nl   |                                       Conv2D_[56]          
       nl_60_nl (Nonlinearity, DEPTHWISE_CONV_2D)       [b:1,h:4,w:4,c:336]                             5,376                        conv2d_60   |                   -5,376(-100.0%)     
------ ------------------------------------------------ ----------------------- ----------------- ----------- -------------------------------- --- ----------------- ------------------- -------------------- 
61     conv2d_61 (Conv2D, CONV_2D)                      [b:1,h:4,w:4,c:56]      18,872/19,040         301,112                         nl_60_nl   |                                       Conv2D_[57]          
------ ------------------------------------------------ ----------------------- ----------------- ----------- -------------------------------- --- ----------------- ------------------- -------------------- 
62     eltwise_62 (Eltwise, ADD)                        [b:1,h:4,w:4,c:56]                                896                       eltwise_58   |                                       Eltwise/add_[58]     
                                                                                                                                     conv2d_61   | 
------ ------------------------------------------------ ----------------------- ----------------- ----------- -------------------------------- --- ----------------- ------------------- -------------------- 
63     conv2d_63 (Conv2D, CONV_2D)                      [b:1,h:4,w:4,c:336]     19,152/20,160         301,392                       eltwise_62   |                                       Conv2D_[59]          
       nl_63_nl (Nonlinearity, CONV_2D)                 [b:1,h:4,w:4,c:336]                             5,376                        conv2d_63   |                   -5,376(-100.0%)     
------ ------------------------------------------------ ----------------------- ----------------- ----------- -------------------------------- --- ----------------- ------------------- -------------------- 
64     conv2d_64 (Conv2D, DEPTHWISE_CONV_2D)            [b:1,h:4,w:4,c:336]     3,360/4,368            48,720                         nl_63_nl   |                                       Conv2D_[60]          
       nl_64_nl (Nonlinearity, DEPTHWISE_CONV_2D)       [b:1,h:4,w:4,c:336]                             5,376                        conv2d_64   |                   -5,376(-100.0%)     
------ ------------------------------------------------ ----------------------- ----------------- ----------- -------------------------------- --- ----------------- ------------------- -------------------- 
65     conv2d_65 (Conv2D, CONV_2D)                      [b:1,h:4,w:4,c:112]     37,744/38,080         602,224                         nl_64_nl   |                                       Conv2D_[61]          
------ ------------------------------------------------ ----------------------- ----------------- ----------- -------------------------------- --- ----------------- ------------------- -------------------- 
66     conv2d_66 (Conv2D, CONV_2D)                      [b:1,h:4,w:4,c:1280]    144,640/148,480     2,295,040                        conv2d_65   |                                       Conv2D_[62]          
       nl_66_nl (Nonlinearity, CONV_2D)                 [b:1,h:4,w:4,c:1280]                           20,480                        conv2d_66   |                   -20,480(-100.0%)    
------ ------------------------------------------------ ----------------------- ----------------- ----------- -------------------------------- --- ----------------- ------------------- -------------------- 
67     pool_67 (Pool, MEAN)                             [b:1,h:1,w:1,c:1280]                           20,480                         nl_66_nl   |                                       Pool_[63]            
       reshape_67_reshape (Reshape, MEAN)               [b:1,c:1280]                                                                   pool_67   |                                       
------ ------------------------------------------------ ----------------------- ----------------- ----------- -------------------------------- --- ----------------- ------------------- -------------------- 
68     mobilenet_v2_alpha..nse_MatMul (Placeholder, )   [b:1,c:1280]            1,280/1,280                                                      | +4(+0.3%)         +1,281(+100.0%)     Dense_[64]           
       dense_bias (Placeholder, )                       [b:1]                   1/4                                                              | -4(-100.0%)                           
       gemm_68 (Gemm, FULLY_CONNECTED)                  [b:1,c:1]                                       1,281               reshape_67_reshape   |                   -1,281(-100.0%)     
                                                                                                                mobilenet_v2_alpha..nse_MatMul   | 
                                                                                                                                    dense_bias   | 
------ ------------------------------------------------ ----------------------- ----------------- ----------- -------------------------------- --- ----------------- ------------------- -------------------- 
69     nl_69 (Nonlinearity, LOGISTIC)                   [b:1,c:1]                                          10                          gemm_68   |                   -9(-90.0%)          Nonlinearity_[65]    
------ ------------------------------------------------ ----------------------- ----------------- ----------- -------------------------------- --- ----------------- ------------------- -------------------- 
70     conversion_70 (Conversion, DEQUANTIZE)           [b:1,c:1]                                           2                            nl_69   |                                       Conversion_[o][66]   
------ ------------------------------------------------ ----------------------- ----------------- ----------- -------------------------------- --- ----------------- ------------------- -------------------- 
model/c-model: macc=19,951,245/19,094,660 -856,585(-4.3%) weights=411,492/411,492  activations=--/266,292 io=--/49,156



Generated C-graph summary
------------------------------------------------------------------------------------------------------------------------
model name            : mobilenet_v2_0_35_128_fft_int8
c-name                : network
c-node #              : 67
c-array #             : 227
activations size      : 266292 (1 segment)
weights size          : 411492 (1 segment)
macc                  : 19094660
inputs                : ['serving_default_input_10_output']
outputs               : ['conversion_70_output']

C-Arrays (227)
------ --------------------------------- --------------- --------------------------------- ----------- --------- 
c_id   name (*_array)                    item/size       domain/mem-pool                   c-type      comment   
------ --------------------------------- --------------- --------------------------------- ----------- --------- 
0      conv2d_10_bias                    8/32            weights/weights                   const s32             
1      conv2d_10_output                  8192/8192       activations/POOL_EXTERNAL_SDRAM   s8                    
2      conv2d_10_scratch0                272/272         activations/POOL_EXTERNAL_SDRAM   s8                    
3      conv2d_10_weights                 384/384         weights/weights                   const s8              
4      conv2d_12_bias                    48/192          weights/weights                   const s32             
5      conv2d_12_output                  49152/49152     activations/POOL_EXTERNAL_SDRAM   s8                    
6      conv2d_12_scratch0                512/512         activations/POOL_EXTERNAL_SDRAM   s8                    
7      conv2d_12_weights                 384/384         weights/weights                   const s8              
8      conv2d_14_bias                    48/192          weights/weights                   const s32             
9      conv2d_14_output                  12288/12288     activations/POOL_EXTERNAL_SDRAM   s8                    
10     conv2d_14_scratch0                1777/1777       activations/POOL_EXTERNAL_SDRAM   s8                    
11     conv2d_14_weights                 432/432         weights/weights                   const s8              
12     conv2d_15_bias                    16/64           weights/weights                   const s32             
13     conv2d_15_output                  4096/4096       activations/POOL_EXTERNAL_SDRAM   s8                    
14     conv2d_15_scratch0                352/352         activations/POOL_EXTERNAL_SDRAM   s8                    
15     conv2d_15_weights                 768/768         weights/weights                   const s8              
16     conv2d_16_bias                    96/384          weights/weights                   const s32             
17     conv2d_16_output                  24576/24576     activations/POOL_EXTERNAL_SDRAM   s8                    
18     conv2d_16_scratch0                1024/1024       activations/POOL_EXTERNAL_SDRAM   s8                    
19     conv2d_16_weights                 1536/1536       weights/weights                   const s8              
20     conv2d_17_bias                    96/384          weights/weights                   const s32             
21     conv2d_17_output                  24576/24576     activations/POOL_EXTERNAL_SDRAM   s8                    
22     conv2d_17_scratch0                3553/3553       activations/POOL_EXTERNAL_SDRAM   s8                    
23     conv2d_17_weights                 864/864         weights/weights                   const s8              
24     conv2d_18_bias                    16/64           weights/weights                   const s32             
25     conv2d_18_output                  4096/4096       activations/POOL_EXTERNAL_SDRAM   s8                    
26     conv2d_18_scratch0                544/544         activations/POOL_EXTERNAL_SDRAM   s8                    
27     conv2d_18_weights                 1536/1536       weights/weights                   const s8              
28     conv2d_1_bias                     16/64           weights/weights                   const s32             
29     conv2d_1_output                   65536/65536     activations/POOL_EXTERNAL_SDRAM   s8                    
30     conv2d_1_scratch0                 1196/1196       activations/POOL_EXTERNAL_SDRAM   s8                    
31     conv2d_1_weights                  432/432         weights/weights                   const s8              
32     conv2d_20_bias                    96/384          weights/weights                   const s32             
33     conv2d_20_output                  24576/24576     activations/POOL_EXTERNAL_SDRAM   s8                    
34     conv2d_20_scratch0                1024/1024       activations/POOL_EXTERNAL_SDRAM   s8                    
35     conv2d_20_weights                 1536/1536       weights/weights                   const s8              
36     conv2d_21_bias                    96/384          weights/weights                   const s32             
37     conv2d_21_output                  24576/24576     activations/POOL_EXTERNAL_SDRAM   s8                    
38     conv2d_21_scratch0                3553/3553       activations/POOL_EXTERNAL_SDRAM   s8                    
39     conv2d_21_weights                 864/864         weights/weights                   const s8              
40     conv2d_22_bias                    16/64           weights/weights                   const s32             
41     conv2d_22_output                  4096/4096       activations/POOL_EXTERNAL_SDRAM   s8                    
42     conv2d_22_scratch0                544/544         activations/POOL_EXTERNAL_SDRAM   s8                    
43     conv2d_22_weights                 1536/1536       weights/weights                   const s8              
44     conv2d_24_bias                    96/384          weights/weights                   const s32             
45     conv2d_24_output                  24576/24576     activations/POOL_EXTERNAL_SDRAM   s8                    
46     conv2d_24_scratch0                1024/1024       activations/POOL_EXTERNAL_SDRAM   s8                    
47     conv2d_24_weights                 1536/1536       weights/weights                   const s8              
48     conv2d_26_bias                    96/384          weights/weights                   const s32             
49     conv2d_26_output                  6144/6144       activations/POOL_EXTERNAL_SDRAM   s8                    
50     conv2d_26_scratch0                3553/3553       activations/POOL_EXTERNAL_SDRAM   s8                    
51     conv2d_26_weights                 864/864         weights/weights                   const s8              
52     conv2d_27_bias                    24/96           weights/weights                   const s32             
53     conv2d_27_output                  1536/1536       activations/POOL_EXTERNAL_SDRAM   s8                    
54     conv2d_27_scratch0                624/624         activations/POOL_EXTERNAL_SDRAM   s8                    
55     conv2d_27_weights                 2304/2304       weights/weights                   const s8              
56     conv2d_28_bias                    144/576         weights/weights                   const s32             
57     conv2d_28_output                  9216/9216       activations/POOL_EXTERNAL_SDRAM   s8                    
58     conv2d_28_scratch0                1536/1536       activations/POOL_EXTERNAL_SDRAM   s8                    
59     conv2d_28_weights                 3456/3456       weights/weights                   const s8              
60     conv2d_29_bias                    144/576         weights/weights                   const s32             
61     conv2d_29_output                  9216/9216       activations/POOL_EXTERNAL_SDRAM   s8                    
62     conv2d_29_scratch0                5329/5329       activations/POOL_EXTERNAL_SDRAM   s8                    
63     conv2d_29_weights                 1296/1296       weights/weights                   const s8              
64     conv2d_2_bias                     16/64           weights/weights                   const s32             
65     conv2d_2_output                   65536/65536     activations/POOL_EXTERNAL_SDRAM   s8                    
66     conv2d_2_scratch0                 593/593         activations/POOL_EXTERNAL_SDRAM   s8                    
67     conv2d_2_weights                  144/144         weights/weights                   const s8              
68     conv2d_30_bias                    24/96           weights/weights                   const s32             
69     conv2d_30_output                  1536/1536       activations/POOL_EXTERNAL_SDRAM   s8                    
70     conv2d_30_scratch0                816/816         activations/POOL_EXTERNAL_SDRAM   s8                    
71     conv2d_30_weights                 3456/3456       weights/weights                   const s8              
72     conv2d_32_bias                    144/576         weights/weights                   const s32             
73     conv2d_32_output                  9216/9216       activations/POOL_EXTERNAL_SDRAM   s8                    
74     conv2d_32_scratch0                1536/1536       activations/POOL_EXTERNAL_SDRAM   s8                    
75     conv2d_32_weights                 3456/3456       weights/weights                   const s8              
76     conv2d_33_bias                    144/576         weights/weights                   const s32             
77     conv2d_33_output                  9216/9216       activations/POOL_EXTERNAL_SDRAM   s8                    
78     conv2d_33_scratch0                5329/5329       activations/POOL_EXTERNAL_SDRAM   s8                    
79     conv2d_33_weights                 1296/1296       weights/weights                   const s8              
80     conv2d_34_bias                    24/96           weights/weights                   const s32             
81     conv2d_34_output                  1536/1536       activations/POOL_EXTERNAL_SDRAM   s8                    
82     conv2d_34_scratch0                816/816         activations/POOL_EXTERNAL_SDRAM   s8                    
83     conv2d_34_weights                 3456/3456       weights/weights                   const s8              
84     conv2d_36_bias                    144/576         weights/weights                   const s32             
85     conv2d_36_output                  9216/9216       activations/POOL_EXTERNAL_SDRAM   s8                    
86     conv2d_36_scratch0                1536/1536       activations/POOL_EXTERNAL_SDRAM   s8                    
87     conv2d_36_weights                 3456/3456       weights/weights                   const s8              
88     conv2d_37_bias                    144/576         weights/weights                   const s32             
89     conv2d_37_output                  9216/9216       activations/POOL_EXTERNAL_SDRAM   s8                    
90     conv2d_37_scratch0                5329/5329       activations/POOL_EXTERNAL_SDRAM   s8                    
91     conv2d_37_weights                 1296/1296       weights/weights                   const s8              
92     conv2d_38_bias                    24/96           weights/weights                   const s32             
93     conv2d_38_output                  1536/1536       activations/POOL_EXTERNAL_SDRAM   s8                    
94     conv2d_38_scratch0                816/816         activations/POOL_EXTERNAL_SDRAM   s8                    
95     conv2d_38_weights                 3456/3456       weights/weights                   const s8              
96     conv2d_3_bias                     8/32            weights/weights                   const s32             
97     conv2d_3_output                   32768/32768     activations/POOL_EXTERNAL_SDRAM   s8                    
98     conv2d_3_scratch0                 144/144         activations/POOL_EXTERNAL_SDRAM   s8                    
99     conv2d_3_weights                  128/128         weights/weights                   const s8              
100    conv2d_40_bias                    144/576         weights/weights                   const s32             
101    conv2d_40_output                  9216/9216       activations/POOL_EXTERNAL_SDRAM   s8                    
102    conv2d_40_scratch0                1536/1536       activations/POOL_EXTERNAL_SDRAM   s8                    
103    conv2d_40_weights                 3456/3456       weights/weights                   const s8              
104    conv2d_41_bias                    144/576         weights/weights                   const s32             
105    conv2d_41_output                  9216/9216       activations/POOL_EXTERNAL_SDRAM   s8                    
106    conv2d_41_scratch0                5329/5329       activations/POOL_EXTERNAL_SDRAM   s8                    
107    conv2d_41_weights                 1296/1296       weights/weights                   const s8              
108    conv2d_42_bias                    32/128          weights/weights                   const s32             
109    conv2d_42_output                  2048/2048       activations/POOL_EXTERNAL_SDRAM   s8                    
110    conv2d_42_scratch0                896/896         activations/POOL_EXTERNAL_SDRAM   s8                    
111    conv2d_42_weights                 4608/4608       weights/weights                   const s8              
112    conv2d_43_bias                    192/768         weights/weights                   const s32             
113    conv2d_43_output                  12288/12288     activations/POOL_EXTERNAL_SDRAM   s8                    
114    conv2d_43_scratch0                2048/2048       activations/POOL_EXTERNAL_SDRAM   s8                    
115    conv2d_43_weights                 6144/6144       weights/weights                   const s8              
116    conv2d_44_bias                    192/768         weights/weights                   const s32             
117    conv2d_44_output                  12288/12288     activations/POOL_EXTERNAL_SDRAM   s8                    
118    conv2d_44_scratch0                7105/7105       activations/POOL_EXTERNAL_SDRAM   s8                    
119    conv2d_44_weights                 1728/1728       weights/weights                   const s8              
120    conv2d_45_bias                    32/128          weights/weights                   const s32             
121    conv2d_45_output                  2048/2048       activations/POOL_EXTERNAL_SDRAM   s8                    
122    conv2d_45_scratch0                1088/1088       activations/POOL_EXTERNAL_SDRAM   s8                    
123    conv2d_45_weights                 6144/6144       weights/weights                   const s8              
124    conv2d_47_bias                    192/768         weights/weights                   const s32             
125    conv2d_47_output                  12288/12288     activations/POOL_EXTERNAL_SDRAM   s8                    
126    conv2d_47_scratch0                2048/2048       activations/POOL_EXTERNAL_SDRAM   s8                    
127    conv2d_47_weights                 6144/6144       weights/weights                   const s8              
128    conv2d_48_bias                    192/768         weights/weights                   const s32             
129    conv2d_48_output                  12288/12288     activations/POOL_EXTERNAL_SDRAM   s8                    
130    conv2d_48_scratch0                7105/7105       activations/POOL_EXTERNAL_SDRAM   s8                    
131    conv2d_48_weights                 1728/1728       weights/weights                   const s8              
132    conv2d_49_bias                    32/128          weights/weights                   const s32             
133    conv2d_49_output                  2048/2048       activations/POOL_EXTERNAL_SDRAM   s8                    
134    conv2d_49_scratch0                1088/1088       activations/POOL_EXTERNAL_SDRAM   s8                    
135    conv2d_49_weights                 6144/6144       weights/weights                   const s8              
136    conv2d_4_bias                     48/192          weights/weights                   const s32             
137    conv2d_4_output                   196608/196608   activations/POOL_EXTERNAL_SDRAM   s8                    
138    conv2d_4_scratch0                 512/512         activations/POOL_EXTERNAL_SDRAM   s8                    
139    conv2d_4_weights                  384/384         weights/weights                   const s8              
140    conv2d_51_bias                    192/768         weights/weights                   const s32             
141    conv2d_51_output                  12288/12288     activations/POOL_EXTERNAL_SDRAM   s8                    
142    conv2d_51_scratch0                2048/2048       activations/POOL_EXTERNAL_SDRAM   s8                    
143    conv2d_51_weights                 6144/6144       weights/weights                   const s8              
144    conv2d_53_bias                    192/768         weights/weights                   const s32             
145    conv2d_53_output                  3072/3072       activations/POOL_EXTERNAL_SDRAM   s8                    
146    conv2d_53_scratch0                7105/7105       activations/POOL_EXTERNAL_SDRAM   s8                    
147    conv2d_53_weights                 1728/1728       weights/weights                   const s8              
148    conv2d_54_bias                    56/224          weights/weights                   const s32             
149    conv2d_54_output                  896/896         activations/POOL_EXTERNAL_SDRAM   s8                    
150    conv2d_54_scratch0                1328/1328       activations/POOL_EXTERNAL_SDRAM   s8                    
151    conv2d_54_weights                 10752/10752     weights/weights                   const s8              
152    conv2d_55_bias                    336/1344        weights/weights                   const s32             
153    conv2d_55_output                  5376/5376       activations/POOL_EXTERNAL_SDRAM   s8                    
154    conv2d_55_scratch0                3584/3584       activations/POOL_EXTERNAL_SDRAM   s8                    
155    conv2d_55_weights                 18816/18816     weights/weights                   const s8              
156    conv2d_56_bias                    336/1344        weights/weights                   const s32             
157    conv2d_56_output                  5376/5376       activations/POOL_EXTERNAL_SDRAM   s8                    
158    conv2d_56_scratch0                12433/12433     activations/POOL_EXTERNAL_SDRAM   s8                    
159    conv2d_56_weights                 3024/3024       weights/weights                   const s8              
160    conv2d_57_bias                    56/224          weights/weights                   const s32             
161    conv2d_57_output                  896/896         activations/POOL_EXTERNAL_SDRAM   s8                    
162    conv2d_57_scratch0                1904/1904       activations/POOL_EXTERNAL_SDRAM   s8                    
163    conv2d_57_weights                 18816/18816     weights/weights                   const s8              
164    conv2d_59_bias                    336/1344        weights/weights                   const s32             
165    conv2d_59_output                  5376/5376       activations/POOL_EXTERNAL_SDRAM   s8                    
166    conv2d_59_scratch0                3584/3584       activations/POOL_EXTERNAL_SDRAM   s8                    
167    conv2d_59_weights                 18816/18816     weights/weights                   const s8              
168    conv2d_60_bias                    336/1344        weights/weights                   const s32             
169    conv2d_60_output                  5376/5376       activations/POOL_EXTERNAL_SDRAM   s8                    
170    conv2d_60_scratch0                12433/12433     activations/POOL_EXTERNAL_SDRAM   s8                    
171    conv2d_60_weights                 3024/3024       weights/weights                   const s8              
172    conv2d_61_bias                    56/224          weights/weights                   const s32             
173    conv2d_61_output                  896/896         activations/POOL_EXTERNAL_SDRAM   s8                    
174    conv2d_61_scratch0                1904/1904       activations/POOL_EXTERNAL_SDRAM   s8                    
175    conv2d_61_weights                 18816/18816     weights/weights                   const s8              
176    conv2d_63_bias                    336/1344        weights/weights                   const s32             
177    conv2d_63_output                  5376/5376       activations/POOL_EXTERNAL_SDRAM   s8                    
178    conv2d_63_scratch0                3584/3584       activations/POOL_EXTERNAL_SDRAM   s8                    
179    conv2d_63_weights                 18816/18816     weights/weights                   const s8              
180    conv2d_64_bias                    336/1344        weights/weights                   const s32             
181    conv2d_64_output                  5376/5376       activations/POOL_EXTERNAL_SDRAM   s8                    
182    conv2d_64_scratch0                12433/12433     activations/POOL_EXTERNAL_SDRAM   s8                    
183    conv2d_64_weights                 3024/3024       weights/weights                   const s8              
184    conv2d_65_bias                    112/448         weights/weights                   const s32             
185    conv2d_65_output                  1792/1792       activations/POOL_EXTERNAL_SDRAM   s8                    
186    conv2d_65_scratch0                2464/2464       activations/POOL_EXTERNAL_SDRAM   s8                    
187    conv2d_65_weights                 37632/37632     weights/weights                   const s8              
188    conv2d_66_bias                    1280/5120       weights/weights                   const s32             
189    conv2d_66_output                  20480/20480     activations/POOL_EXTERNAL_SDRAM   s8                    
190    conv2d_66_scratch0                13248/13248     activations/POOL_EXTERNAL_SDRAM   s8                    
191    conv2d_66_weights                 143360/143360   weights/weights                   const s8              
192    conv2d_6_bias                     48/192          weights/weights                   const s32             
193    conv2d_6_output                   49152/49152     activations/POOL_EXTERNAL_SDRAM   s8                    
194    conv2d_6_scratch0                 1777/1777       activations/POOL_EXTERNAL_SDRAM   s8                    
195    conv2d_6_weights                  432/432         weights/weights                   const s8              
196    conv2d_7_bias                     8/32            weights/weights                   const s32             
197    conv2d_7_output                   8192/8192       activations/POOL_EXTERNAL_SDRAM   s8                    
198    conv2d_7_scratch0                 272/272         activations/POOL_EXTERNAL_SDRAM   s8                    
199    conv2d_7_weights                  384/384         weights/weights                   const s8              
200    conv2d_8_bias                     48/192          weights/weights                   const s32             
201    conv2d_8_output                   49152/49152     activations/POOL_EXTERNAL_SDRAM   s8                    
202    conv2d_8_scratch0                 512/512         activations/POOL_EXTERNAL_SDRAM   s8                    
203    conv2d_8_weights                  384/384         weights/weights                   const s8              
204    conv2d_9_bias                     48/192          weights/weights                   const s32             
205    conv2d_9_output                   49152/49152     activations/POOL_EXTERNAL_SDRAM   s8                    
206    conv2d_9_scratch0                 1777/1777       activations/POOL_EXTERNAL_SDRAM   s8                    
207    conv2d_9_weights                  432/432         weights/weights                   const s8              
208    conversion_0_output               49152/49153     activations/POOL_EXTERNAL_SDRAM   s8                    
209    conversion_70_output              1/4             user/                             float       /output   
210    eltwise_11_output                 8192/8192       activations/POOL_EXTERNAL_SDRAM   s8                    
211    eltwise_19_output                 4096/4096       activations/POOL_EXTERNAL_SDRAM   s8                    
212    eltwise_23_output                 4096/4096       activations/POOL_EXTERNAL_SDRAM   s8                    
213    eltwise_31_output                 1536/1536       activations/POOL_EXTERNAL_SDRAM   s8                    
214    eltwise_35_output                 1536/1536       activations/POOL_EXTERNAL_SDRAM   s8                    
215    eltwise_39_output                 1536/1536       activations/POOL_EXTERNAL_SDRAM   s8                    
216    eltwise_46_output                 2048/2048       activations/POOL_EXTERNAL_SDRAM   s8                    
217    eltwise_50_output                 2048/2048       activations/POOL_EXTERNAL_SDRAM   s8                    
218    eltwise_58_output                 896/896         activations/POOL_EXTERNAL_SDRAM   s8                    
219    eltwise_62_output                 896/896         activations/POOL_EXTERNAL_SDRAM   s8                    
220    gemm_68_bias                      1/4             weights/weights                   const s32             
221    gemm_68_output                    1/1             activations/POOL_EXTERNAL_SDRAM   s8                    
222    gemm_68_scratch0                  1280/2560       activations/POOL_EXTERNAL_SDRAM   s16                   
223    gemm_68_weights                   1280/1280       weights/weights                   const s8              
224    nl_69_output                      1/1             activations/POOL_EXTERNAL_SDRAM   s8                    
225    pool_67_output                    1280/1280       activations/POOL_EXTERNAL_SDRAM   s8                    
226    serving_default_input_10_output   49152/49152     user/                             u8          /input    
------ --------------------------------- --------------- --------------------------------- ----------- --------- 

C-Layers (67)
------ ---------------- ---- --------------- --------- -------- ------------------------------------ -------------------------- 
c_id   name (*_layer)   id   layer_type      macc      rom      tensors                              shape (array id)           
------ ---------------- ---- --------------- --------- -------- ------------------------------------ -------------------------- 
0      conversion_0     0    Conversion      98304     0        I: serving_default_input_10_output   uint8(1x128x128x3) (226)   
                                                                O: conversion_0_output               int8(1x128x128x3) (208)    
------ ---------------- ---- --------------- --------- -------- ------------------------------------ -------------------------- 
1      conv2d_1         1    Conv2D          1769488   496      I: conversion_0_output               int8(1x128x128x3) (208)    
                                                                S: conv2d_1_scratch0                                            
                                                                W: conv2d_1_weights                  int8(16x3x3x3) (31)        
                                                                W: conv2d_1_bias                     int32(16) (28)             
                                                                O: conv2d_1_output                   int8(1x64x64x16) (29)      
------ ---------------- ---- --------------- --------- -------- ------------------------------------ -------------------------- 
2      conv2d_2         2    Conv2D          589840    208      I: conv2d_1_output                   int8(1x64x64x16) (29)      
                                                                S: conv2d_2_scratch0                                            
                                                                W: conv2d_2_weights                  int8(1x3x3x16) (67)        
                                                                W: conv2d_2_bias                     int32(16) (64)             
                                                                O: conv2d_2_output                   int8(1x64x64x16) (65)      
------ ---------------- ---- --------------- --------- -------- ------------------------------------ -------------------------- 
3      conv2d_3         3    Conv2D          524296    160      I: conv2d_2_output                   int8(1x64x64x16) (65)      
                                                                S: conv2d_3_scratch0                                            
                                                                W: conv2d_3_weights                  int8(8x1x1x16) (99)        
                                                                W: conv2d_3_bias                     int32(8) (96)              
                                                                O: conv2d_3_output                   int8(1x64x64x8) (97)       
------ ---------------- ---- --------------- --------- -------- ------------------------------------ -------------------------- 
4      conv2d_4         4    Conv2D          1572912   576      I: conv2d_3_output                   int8(1x64x64x8) (97)       
                                                                S: conv2d_4_scratch0                                            
                                                                W: conv2d_4_weights                  int8(48x1x1x8) (139)       
                                                                W: conv2d_4_bias                     int32(48) (136)            
                                                                O: conv2d_4_output                   int8(1x64x64x48) (137)     
------ ---------------- ---- --------------- --------- -------- ------------------------------------ -------------------------- 
5      conv2d_6         5    Conv2D          442416    624      I: conv2d_4_output                   int8(1x64x64x48) (137)     
                                                                S: conv2d_6_scratch0                                            
                                                                W: conv2d_6_weights                  int8(1x3x3x48) (195)       
                                                                W: conv2d_6_bias                     int32(48) (192)            
                                                                O: conv2d_6_output                   int8(1x32x32x48) (193)     
------ ---------------- ---- --------------- --------- -------- ------------------------------------ -------------------------- 
6      conv2d_7         7    Conv2D          393224    416      I: conv2d_6_output                   int8(1x32x32x48) (193)     
                                                                S: conv2d_7_scratch0                                            
                                                                W: conv2d_7_weights                  int8(8x1x1x48) (199)       
                                                                W: conv2d_7_bias                     int32(8) (196)             
                                                                O: conv2d_7_output                   int8(1x32x32x8) (197)      
------ ---------------- ---- --------------- --------- -------- ------------------------------------ -------------------------- 
7      conv2d_8         8    Conv2D          393264    576      I: conv2d_7_output                   int8(1x32x32x8) (197)      
                                                                S: conv2d_8_scratch0                                            
                                                                W: conv2d_8_weights                  int8(48x1x1x8) (203)       
                                                                W: conv2d_8_bias                     int32(48) (200)            
                                                                O: conv2d_8_output                   int8(1x32x32x48) (201)     
------ ---------------- ---- --------------- --------- -------- ------------------------------------ -------------------------- 
8      conv2d_9         9    Conv2D          442416    624      I: conv2d_8_output                   int8(1x32x32x48) (201)     
                                                                S: conv2d_9_scratch0                                            
                                                                W: conv2d_9_weights                  int8(1x3x3x48) (207)       
                                                                W: conv2d_9_bias                     int32(48) (204)            
                                                                O: conv2d_9_output                   int8(1x32x32x48) (205)     
------ ---------------- ---- --------------- --------- -------- ------------------------------------ -------------------------- 
9      conv2d_10        10   Conv2D          393224    416      I: conv2d_9_output                   int8(1x32x32x48) (205)     
                                                                S: conv2d_10_scratch0                                           
                                                                W: conv2d_10_weights                 int8(8x1x1x48) (3)         
                                                                W: conv2d_10_bias                    int32(8) (0)               
                                                                O: conv2d_10_output                  int8(1x32x32x8) (1)        
------ ---------------- ---- --------------- --------- -------- ------------------------------------ -------------------------- 
10     eltwise_11       11   Eltwise/add     8192      0        I: conv2d_7_output                   int8(1x32x32x8) (197)      
                                                                I: conv2d_10_output                  int8(1x32x32x8) (197)      
                                                                O: eltwise_11_output                 int8(1x32x32x8) (210)      
------ ---------------- ---- --------------- --------- -------- ------------------------------------ -------------------------- 
11     conv2d_12        12   Conv2D          393264    576      I: eltwise_11_output                 int8(1x32x32x8) (210)      
                                                                S: conv2d_12_scratch0                                           
                                                                W: conv2d_12_weights                 int8(48x1x1x8) (7)         
                                                                W: conv2d_12_bias                    int32(48) (4)              
                                                                O: conv2d_12_output                  int8(1x32x32x48) (5)       
------ ---------------- ---- --------------- --------- -------- ------------------------------------ -------------------------- 
12     conv2d_14        13   Conv2D          110640    624      I: conv2d_12_output                  int8(1x32x32x48) (5)       
                                                                S: conv2d_14_scratch0                                           
                                                                W: conv2d_14_weights                 int8(1x3x3x48) (11)        
                                                                W: conv2d_14_bias                    int32(48) (8)              
                                                                O: conv2d_14_output                  int8(1x16x16x48) (9)       
------ ---------------- ---- --------------- --------- -------- ------------------------------------ -------------------------- 
13     conv2d_15        15   Conv2D          196624    832      I: conv2d_14_output                  int8(1x16x16x48) (9)       
                                                                S: conv2d_15_scratch0                                           
                                                                W: conv2d_15_weights                 int8(16x1x1x48) (15)       
                                                                W: conv2d_15_bias                    int32(16) (12)             
                                                                O: conv2d_15_output                  int8(1x16x16x16) (13)      
------ ---------------- ---- --------------- --------- -------- ------------------------------------ -------------------------- 
14     conv2d_16        16   Conv2D          393312    1920     I: conv2d_15_output                  int8(1x16x16x16) (13)      
                                                                S: conv2d_16_scratch0                                           
                                                                W: conv2d_16_weights                 int8(96x1x1x16) (19)       
                                                                W: conv2d_16_bias                    int32(96) (16)             
                                                                O: conv2d_16_output                  int8(1x16x16x96) (17)      
------ ---------------- ---- --------------- --------- -------- ------------------------------------ -------------------------- 
15     conv2d_17        17   Conv2D          221280    1248     I: conv2d_16_output                  int8(1x16x16x96) (17)      
                                                                S: conv2d_17_scratch0                                           
                                                                W: conv2d_17_weights                 int8(1x3x3x96) (23)        
                                                                W: conv2d_17_bias                    int32(96) (20)             
                                                                O: conv2d_17_output                  int8(1x16x16x96) (21)      
------ ---------------- ---- --------------- --------- -------- ------------------------------------ -------------------------- 
16     conv2d_18        18   Conv2D          393232    1600     I: conv2d_17_output                  int8(1x16x16x96) (21)      
                                                                S: conv2d_18_scratch0                                           
                                                                W: conv2d_18_weights                 int8(16x1x1x96) (27)       
                                                                W: conv2d_18_bias                    int32(16) (24)             
                                                                O: conv2d_18_output                  int8(1x16x16x16) (25)      
------ ---------------- ---- --------------- --------- -------- ------------------------------------ -------------------------- 
17     eltwise_19       19   Eltwise/add     4096      0        I: conv2d_15_output                  int8(1x16x16x16) (13)      
                                                                I: conv2d_18_output                  int8(1x16x16x16) (13)      
                                                                O: eltwise_19_output                 int8(1x16x16x16) (211)     
------ ---------------- ---- --------------- --------- -------- ------------------------------------ -------------------------- 
18     conv2d_20        20   Conv2D          393312    1920     I: eltwise_19_output                 int8(1x16x16x16) (211)     
                                                                S: conv2d_20_scratch0                                           
                                                                W: conv2d_20_weights                 int8(96x1x1x16) (35)       
                                                                W: conv2d_20_bias                    int32(96) (32)             
                                                                O: conv2d_20_output                  int8(1x16x16x96) (33)      
------ ---------------- ---- --------------- --------- -------- ------------------------------------ -------------------------- 
19     conv2d_21        21   Conv2D          221280    1248     I: conv2d_20_output                  int8(1x16x16x96) (33)      
                                                                S: conv2d_21_scratch0                                           
                                                                W: conv2d_21_weights                 int8(1x3x3x96) (39)        
                                                                W: conv2d_21_bias                    int32(96) (36)             
                                                                O: conv2d_21_output                  int8(1x16x16x96) (37)      
------ ---------------- ---- --------------- --------- -------- ------------------------------------ -------------------------- 
20     conv2d_22        22   Conv2D          393232    1600     I: conv2d_21_output                  int8(1x16x16x96) (37)      
                                                                S: conv2d_22_scratch0                                           
                                                                W: conv2d_22_weights                 int8(16x1x1x96) (43)       
                                                                W: conv2d_22_bias                    int32(16) (40)             
                                                                O: conv2d_22_output                  int8(1x16x16x16) (41)      
------ ---------------- ---- --------------- --------- -------- ------------------------------------ -------------------------- 
21     eltwise_23       23   Eltwise/add     4096      0        I: eltwise_19_output                 int8(1x16x16x16) (211)     
                                                                I: conv2d_22_output                  int8(1x16x16x16) (211)     
                                                                O: eltwise_23_output                 int8(1x16x16x16) (212)     
------ ---------------- ---- --------------- --------- -------- ------------------------------------ -------------------------- 
22     conv2d_24        24   Conv2D          393312    1920     I: eltwise_23_output                 int8(1x16x16x16) (212)     
                                                                S: conv2d_24_scratch0                                           
                                                                W: conv2d_24_weights                 int8(96x1x1x16) (47)       
                                                                W: conv2d_24_bias                    int32(96) (44)             
                                                                O: conv2d_24_output                  int8(1x16x16x96) (45)      
------ ---------------- ---- --------------- --------- -------- ------------------------------------ -------------------------- 
23     conv2d_26        25   Conv2D          55392     1248     I: conv2d_24_output                  int8(1x16x16x96) (45)      
                                                                S: conv2d_26_scratch0                                           
                                                                W: conv2d_26_weights                 int8(1x3x3x96) (51)        
                                                                W: conv2d_26_bias                    int32(96) (48)             
                                                                O: conv2d_26_output                  int8(1x8x8x96) (49)        
------ ---------------- ---- --------------- --------- -------- ------------------------------------ -------------------------- 
24     conv2d_27        27   Conv2D          147480    2400     I: conv2d_26_output                  int8(1x8x8x96) (49)        
                                                                S: conv2d_27_scratch0                                           
                                                                W: conv2d_27_weights                 int8(24x1x1x96) (55)       
                                                                W: conv2d_27_bias                    int32(24) (52)             
                                                                O: conv2d_27_output                  int8(1x8x8x24) (53)        
------ ---------------- ---- --------------- --------- -------- ------------------------------------ -------------------------- 
25     conv2d_28        28   Conv2D          221328    4032     I: conv2d_27_output                  int8(1x8x8x24) (53)        
                                                                S: conv2d_28_scratch0                                           
                                                                W: conv2d_28_weights                 int8(144x1x1x24) (59)      
                                                                W: conv2d_28_bias                    int32(144) (56)            
                                                                O: conv2d_28_output                  int8(1x8x8x144) (57)       
------ ---------------- ---- --------------- --------- -------- ------------------------------------ -------------------------- 
26     conv2d_29        29   Conv2D          83088     1872     I: conv2d_28_output                  int8(1x8x8x144) (57)       
                                                                S: conv2d_29_scratch0                                           
                                                                W: conv2d_29_weights                 int8(1x3x3x144) (63)       
                                                                W: conv2d_29_bias                    int32(144) (60)            
                                                                O: conv2d_29_output                  int8(1x8x8x144) (61)       
------ ---------------- ---- --------------- --------- -------- ------------------------------------ -------------------------- 
27     conv2d_30        30   Conv2D          221208    3552     I: conv2d_29_output                  int8(1x8x8x144) (61)       
                                                                S: conv2d_30_scratch0                                           
                                                                W: conv2d_30_weights                 int8(24x1x1x144) (71)      
                                                                W: conv2d_30_bias                    int32(24) (68)             
                                                                O: conv2d_30_output                  int8(1x8x8x24) (69)        
------ ---------------- ---- --------------- --------- -------- ------------------------------------ -------------------------- 
28     eltwise_31       31   Eltwise/add     1536      0        I: conv2d_27_output                  int8(1x8x8x24) (53)        
                                                                I: conv2d_30_output                  int8(1x8x8x24) (53)        
                                                                O: eltwise_31_output                 int8(1x8x8x24) (213)       
------ ---------------- ---- --------------- --------- -------- ------------------------------------ -------------------------- 
29     conv2d_32        32   Conv2D          221328    4032     I: eltwise_31_output                 int8(1x8x8x24) (213)       
                                                                S: conv2d_32_scratch0                                           
                                                                W: conv2d_32_weights                 int8(144x1x1x24) (75)      
                                                                W: conv2d_32_bias                    int32(144) (72)            
                                                                O: conv2d_32_output                  int8(1x8x8x144) (73)       
------ ---------------- ---- --------------- --------- -------- ------------------------------------ -------------------------- 
30     conv2d_33        33   Conv2D          83088     1872     I: conv2d_32_output                  int8(1x8x8x144) (73)       
                                                                S: conv2d_33_scratch0                                           
                                                                W: conv2d_33_weights                 int8(1x3x3x144) (79)       
                                                                W: conv2d_33_bias                    int32(144) (76)            
                                                                O: conv2d_33_output                  int8(1x8x8x144) (77)       
------ ---------------- ---- --------------- --------- -------- ------------------------------------ -------------------------- 
31     conv2d_34        34   Conv2D          221208    3552     I: conv2d_33_output                  int8(1x8x8x144) (77)       
                                                                S: conv2d_34_scratch0                                           
                                                                W: conv2d_34_weights                 int8(24x1x1x144) (83)      
                                                                W: conv2d_34_bias                    int32(24) (80)             
                                                                O: conv2d_34_output                  int8(1x8x8x24) (81)        
------ ---------------- ---- --------------- --------- -------- ------------------------------------ -------------------------- 
32     eltwise_35       35   Eltwise/add     1536      0        I: eltwise_31_output                 int8(1x8x8x24) (213)       
                                                                I: conv2d_34_output                  int8(1x8x8x24) (213)       
                                                                O: eltwise_35_output                 int8(1x8x8x24) (214)       
------ ---------------- ---- --------------- --------- -------- ------------------------------------ -------------------------- 
33     conv2d_36        36   Conv2D          221328    4032     I: eltwise_35_output                 int8(1x8x8x24) (214)       
                                                                S: conv2d_36_scratch0                                           
                                                                W: conv2d_36_weights                 int8(144x1x1x24) (87)      
                                                                W: conv2d_36_bias                    int32(144) (84)            
                                                                O: conv2d_36_output                  int8(1x8x8x144) (85)       
------ ---------------- ---- --------------- --------- -------- ------------------------------------ -------------------------- 
34     conv2d_37        37   Conv2D          83088     1872     I: conv2d_36_output                  int8(1x8x8x144) (85)       
                                                                S: conv2d_37_scratch0                                           
                                                                W: conv2d_37_weights                 int8(1x3x3x144) (91)       
                                                                W: conv2d_37_bias                    int32(144) (88)            
                                                                O: conv2d_37_output                  int8(1x8x8x144) (89)       
------ ---------------- ---- --------------- --------- -------- ------------------------------------ -------------------------- 
35     conv2d_38        38   Conv2D          221208    3552     I: conv2d_37_output                  int8(1x8x8x144) (89)       
                                                                S: conv2d_38_scratch0                                           
                                                                W: conv2d_38_weights                 int8(24x1x1x144) (95)      
                                                                W: conv2d_38_bias                    int32(24) (92)             
                                                                O: conv2d_38_output                  int8(1x8x8x24) (93)        
------ ---------------- ---- --------------- --------- -------- ------------------------------------ -------------------------- 
36     eltwise_39       39   Eltwise/add     1536      0        I: eltwise_35_output                 int8(1x8x8x24) (214)       
                                                                I: conv2d_38_output                  int8(1x8x8x24) (214)       
                                                                O: eltwise_39_output                 int8(1x8x8x24) (215)       
------ ---------------- ---- --------------- --------- -------- ------------------------------------ -------------------------- 
37     conv2d_40        40   Conv2D          221328    4032     I: eltwise_39_output                 int8(1x8x8x24) (215)       
                                                                S: conv2d_40_scratch0                                           
                                                                W: conv2d_40_weights                 int8(144x1x1x24) (103)     
                                                                W: conv2d_40_bias                    int32(144) (100)           
                                                                O: conv2d_40_output                  int8(1x8x8x144) (101)      
------ ---------------- ---- --------------- --------- -------- ------------------------------------ -------------------------- 
38     conv2d_41        41   Conv2D          83088     1872     I: conv2d_40_output                  int8(1x8x8x144) (101)      
                                                                S: conv2d_41_scratch0                                           
                                                                W: conv2d_41_weights                 int8(1x3x3x144) (107)      
                                                                W: conv2d_41_bias                    int32(144) (104)           
                                                                O: conv2d_41_output                  int8(1x8x8x144) (105)      
------ ---------------- ---- --------------- --------- -------- ------------------------------------ -------------------------- 
39     conv2d_42        42   Conv2D          294944    4736     I: conv2d_41_output                  int8(1x8x8x144) (105)      
                                                                S: conv2d_42_scratch0                                           
                                                                W: conv2d_42_weights                 int8(32x1x1x144) (111)     
                                                                W: conv2d_42_bias                    int32(32) (108)            
                                                                O: conv2d_42_output                  int8(1x8x8x32) (109)       
------ ---------------- ---- --------------- --------- -------- ------------------------------------ -------------------------- 
40     conv2d_43        43   Conv2D          393408    6912     I: conv2d_42_output                  int8(1x8x8x32) (109)       
                                                                S: conv2d_43_scratch0                                           
                                                                W: conv2d_43_weights                 int8(192x1x1x32) (115)     
                                                                W: conv2d_43_bias                    int32(192) (112)           
                                                                O: conv2d_43_output                  int8(1x8x8x192) (113)      
------ ---------------- ---- --------------- --------- -------- ------------------------------------ -------------------------- 
41     conv2d_44        44   Conv2D          110784    2496     I: conv2d_43_output                  int8(1x8x8x192) (113)      
                                                                S: conv2d_44_scratch0                                           
                                                                W: conv2d_44_weights                 int8(1x3x3x192) (119)      
                                                                W: conv2d_44_bias                    int32(192) (116)           
                                                                O: conv2d_44_output                  int8(1x8x8x192) (117)      
------ ---------------- ---- --------------- --------- -------- ------------------------------------ -------------------------- 
42     conv2d_45        45   Conv2D          393248    6272     I: conv2d_44_output                  int8(1x8x8x192) (117)      
                                                                S: conv2d_45_scratch0                                           
                                                                W: conv2d_45_weights                 int8(32x1x1x192) (123)     
                                                                W: conv2d_45_bias                    int32(32) (120)            
                                                                O: conv2d_45_output                  int8(1x8x8x32) (121)       
------ ---------------- ---- --------------- --------- -------- ------------------------------------ -------------------------- 
43     eltwise_46       46   Eltwise/add     2048      0        I: conv2d_42_output                  int8(1x8x8x32) (109)       
                                                                I: conv2d_45_output                  int8(1x8x8x32) (109)       
                                                                O: eltwise_46_output                 int8(1x8x8x32) (216)       
------ ---------------- ---- --------------- --------- -------- ------------------------------------ -------------------------- 
44     conv2d_47        47   Conv2D          393408    6912     I: eltwise_46_output                 int8(1x8x8x32) (216)       
                                                                S: conv2d_47_scratch0                                           
                                                                W: conv2d_47_weights                 int8(192x1x1x32) (127)     
                                                                W: conv2d_47_bias                    int32(192) (124)           
                                                                O: conv2d_47_output                  int8(1x8x8x192) (125)      
------ ---------------- ---- --------------- --------- -------- ------------------------------------ -------------------------- 
45     conv2d_48        48   Conv2D          110784    2496     I: conv2d_47_output                  int8(1x8x8x192) (125)      
                                                                S: conv2d_48_scratch0                                           
                                                                W: conv2d_48_weights                 int8(1x3x3x192) (131)      
                                                                W: conv2d_48_bias                    int32(192) (128)           
                                                                O: conv2d_48_output                  int8(1x8x8x192) (129)      
------ ---------------- ---- --------------- --------- -------- ------------------------------------ -------------------------- 
46     conv2d_49        49   Conv2D          393248    6272     I: conv2d_48_output                  int8(1x8x8x192) (129)      
                                                                S: conv2d_49_scratch0                                           
                                                                W: conv2d_49_weights                 int8(32x1x1x192) (135)     
                                                                W: conv2d_49_bias                    int32(32) (132)            
                                                                O: conv2d_49_output                  int8(1x8x8x32) (133)       
------ ---------------- ---- --------------- --------- -------- ------------------------------------ -------------------------- 
47     eltwise_50       50   Eltwise/add     2048      0        I: eltwise_46_output                 int8(1x8x8x32) (216)       
                                                                I: conv2d_49_output                  int8(1x8x8x32) (216)       
                                                                O: eltwise_50_output                 int8(1x8x8x32) (217)       
------ ---------------- ---- --------------- --------- -------- ------------------------------------ -------------------------- 
48     conv2d_51        51   Conv2D          393408    6912     I: eltwise_50_output                 int8(1x8x8x32) (217)       
                                                                S: conv2d_51_scratch0                                           
                                                                W: conv2d_51_weights                 int8(192x1x1x32) (143)     
                                                                W: conv2d_51_bias                    int32(192) (140)           
                                                                O: conv2d_51_output                  int8(1x8x8x192) (141)      
------ ---------------- ---- --------------- --------- -------- ------------------------------------ -------------------------- 
49     conv2d_53        52   Conv2D          27840     2496     I: conv2d_51_output                  int8(1x8x8x192) (141)      
                                                                S: conv2d_53_scratch0                                           
                                                                W: conv2d_53_weights                 int8(1x3x3x192) (147)      
                                                                W: conv2d_53_bias                    int32(192) (144)           
                                                                O: conv2d_53_output                  int8(1x4x4x192) (145)      
------ ---------------- ---- --------------- --------- -------- ------------------------------------ -------------------------- 
50     conv2d_54        54   Conv2D          172088    10976    I: conv2d_53_output                  int8(1x4x4x192) (145)      
                                                                S: conv2d_54_scratch0                                           
                                                                W: conv2d_54_weights                 int8(56x1x1x192) (151)     
                                                                W: conv2d_54_bias                    int32(56) (148)            
                                                                O: conv2d_54_output                  int8(1x4x4x56) (149)       
------ ---------------- ---- --------------- --------- -------- ------------------------------------ -------------------------- 
51     conv2d_55        55   Conv2D          301392    20160    I: conv2d_54_output                  int8(1x4x4x56) (149)       
                                                                S: conv2d_55_scratch0                                           
                                                                W: conv2d_55_weights                 int8(336x1x1x56) (155)     
                                                                W: conv2d_55_bias                    int32(336) (152)           
                                                                O: conv2d_55_output                  int8(1x4x4x336) (153)      
------ ---------------- ---- --------------- --------- -------- ------------------------------------ -------------------------- 
52     conv2d_56        56   Conv2D          48720     4368     I: conv2d_55_output                  int8(1x4x4x336) (153)      
                                                                S: conv2d_56_scratch0                                           
                                                                W: conv2d_56_weights                 int8(1x3x3x336) (159)      
                                                                W: conv2d_56_bias                    int32(336) (156)           
                                                                O: conv2d_56_output                  int8(1x4x4x336) (157)      
------ ---------------- ---- --------------- --------- -------- ------------------------------------ -------------------------- 
53     conv2d_57        57   Conv2D          301112    19040    I: conv2d_56_output                  int8(1x4x4x336) (157)      
                                                                S: conv2d_57_scratch0                                           
                                                                W: conv2d_57_weights                 int8(56x1x1x336) (163)     
                                                                W: conv2d_57_bias                    int32(56) (160)            
                                                                O: conv2d_57_output                  int8(1x4x4x56) (161)       
------ ---------------- ---- --------------- --------- -------- ------------------------------------ -------------------------- 
54     eltwise_58       58   Eltwise/add     896       0        I: conv2d_54_output                  int8(1x4x4x56) (149)       
                                                                I: conv2d_57_output                  int8(1x4x4x56) (149)       
                                                                O: eltwise_58_output                 int8(1x4x4x56) (218)       
------ ---------------- ---- --------------- --------- -------- ------------------------------------ -------------------------- 
55     conv2d_59        59   Conv2D          301392    20160    I: eltwise_58_output                 int8(1x4x4x56) (218)       
                                                                S: conv2d_59_scratch0                                           
                                                                W: conv2d_59_weights                 int8(336x1x1x56) (167)     
                                                                W: conv2d_59_bias                    int32(336) (164)           
                                                                O: conv2d_59_output                  int8(1x4x4x336) (165)      
------ ---------------- ---- --------------- --------- -------- ------------------------------------ -------------------------- 
56     conv2d_60        60   Conv2D          48720     4368     I: conv2d_59_output                  int8(1x4x4x336) (165)      
                                                                S: conv2d_60_scratch0                                           
                                                                W: conv2d_60_weights                 int8(1x3x3x336) (171)      
                                                                W: conv2d_60_bias                    int32(336) (168)           
                                                                O: conv2d_60_output                  int8(1x4x4x336) (169)      
------ ---------------- ---- --------------- --------- -------- ------------------------------------ -------------------------- 
57     conv2d_61        61   Conv2D          301112    19040    I: conv2d_60_output                  int8(1x4x4x336) (169)      
                                                                S: conv2d_61_scratch0                                           
                                                                W: conv2d_61_weights                 int8(56x1x1x336) (175)     
                                                                W: conv2d_61_bias                    int32(56) (172)            
                                                                O: conv2d_61_output                  int8(1x4x4x56) (173)       
------ ---------------- ---- --------------- --------- -------- ------------------------------------ -------------------------- 
58     eltwise_62       62   Eltwise/add     896       0        I: eltwise_58_output                 int8(1x4x4x56) (218)       
                                                                I: conv2d_61_output                  int8(1x4x4x56) (218)       
                                                                O: eltwise_62_output                 int8(1x4x4x56) (219)       
------ ---------------- ---- --------------- --------- -------- ------------------------------------ -------------------------- 
59     conv2d_63        63   Conv2D          301392    20160    I: eltwise_62_output                 int8(1x4x4x56) (219)       
                                                                S: conv2d_63_scratch0                                           
                                                                W: conv2d_63_weights                 int8(336x1x1x56) (179)     
                                                                W: conv2d_63_bias                    int32(336) (176)           
                                                                O: conv2d_63_output                  int8(1x4x4x336) (177)      
------ ---------------- ---- --------------- --------- -------- ------------------------------------ -------------------------- 
60     conv2d_64        64   Conv2D          48720     4368     I: conv2d_63_output                  int8(1x4x4x336) (177)      
                                                                S: conv2d_64_scratch0                                           
                                                                W: conv2d_64_weights                 int8(1x3x3x336) (183)      
                                                                W: conv2d_64_bias                    int32(336) (180)           
                                                                O: conv2d_64_output                  int8(1x4x4x336) (181)      
------ ---------------- ---- --------------- --------- -------- ------------------------------------ -------------------------- 
61     conv2d_65        65   Conv2D          602224    38080    I: conv2d_64_output                  int8(1x4x4x336) (181)      
                                                                S: conv2d_65_scratch0                                           
                                                                W: conv2d_65_weights                 int8(112x1x1x336) (187)    
                                                                W: conv2d_65_bias                    int32(112) (184)           
                                                                O: conv2d_65_output                  int8(1x4x4x112) (185)      
------ ---------------- ---- --------------- --------- -------- ------------------------------------ -------------------------- 
62     conv2d_66        66   Conv2D          2295040   148480   I: conv2d_65_output                  int8(1x4x4x112) (185)      
                                                                S: conv2d_66_scratch0                                           
                                                                W: conv2d_66_weights                 int8(1280x1x1x112) (191)   
                                                                W: conv2d_66_bias                    int32(1280) (188)          
                                                                O: conv2d_66_output                  int8(1x4x4x1280) (189)     
------ ---------------- ---- --------------- --------- -------- ------------------------------------ -------------------------- 
63     pool_67          67   Pool            20480     0        I: conv2d_66_output                  int8(1x4x4x1280) (189)     
                                                                O: pool_67_output                    int8(1x1x1x1280) (225)     
------ ---------------- ---- --------------- --------- -------- ------------------------------------ -------------------------- 
64     gemm_68          68   Dense           1281      1284     I: pool_67_output                    int8(1x1x1x1280) (225)     
                                                                S: gemm_68_scratch0                                             
                                                                W: gemm_68_weights                   int8(1x1280) (223)         
                                                                W: gemm_68_bias                      int32(1) (220)             
                                                                O: gemm_68_output                    int8(1x1) (221)            
------ ---------------- ---- --------------- --------- -------- ------------------------------------ -------------------------- 
65     nl_69            69   Nonlinearity    1         0        I: gemm_68_output                    int8(1x1) (221)            
                                                                O: nl_69_output                      int8(1x1) (224)            
------ ---------------- ---- --------------- --------- -------- ------------------------------------ -------------------------- 
66     conversion_70    70   Conversion      2         0        I: nl_69_output                      int8(1x1) (224)            
                                                                O: conversion_70_output              f32(1x1) (209)             
------ ---------------- ---- --------------- --------- -------- ------------------------------------ -------------------------- 



Number of operations per c-layer
------- ------ ---------------------------- ------------ ------------- 
c_id    m_id   name (type)                           #op          type 
------- ------ ---------------------------- ------------ ------------- 
0       0      conversion_0 (Conversion)          98,304    smul_u8_s8 
1       1      conv2d_1 (Conv2D)               1,769,488    smul_s8_s8 
2       2      conv2d_2 (Conv2D)                 589,840    smul_s8_s8 
3       3      conv2d_3 (Conv2D)                 524,296    smul_s8_s8 
4       4      conv2d_4 (Conv2D)               1,572,912    smul_s8_s8 
5       5      conv2d_6 (Conv2D)                 442,416    smul_s8_s8 
6       7      conv2d_7 (Conv2D)                 393,224    smul_s8_s8 
7       8      conv2d_8 (Conv2D)                 393,264    smul_s8_s8 
8       9      conv2d_9 (Conv2D)                 442,416    smul_s8_s8 
9       10     conv2d_10 (Conv2D)                393,224    smul_s8_s8 
10      11     eltwise_11 (Eltwise/add)            8,192      op_s8_s8 
11      12     conv2d_12 (Conv2D)                393,264    smul_s8_s8 
12      13     conv2d_14 (Conv2D)                110,640    smul_s8_s8 
13      15     conv2d_15 (Conv2D)                196,624    smul_s8_s8 
14      16     conv2d_16 (Conv2D)                393,312    smul_s8_s8 
15      17     conv2d_17 (Conv2D)                221,280    smul_s8_s8 
16      18     conv2d_18 (Conv2D)                393,232    smul_s8_s8 
17      19     eltwise_19 (Eltwise/add)            4,096      op_s8_s8 
18      20     conv2d_20 (Conv2D)                393,312    smul_s8_s8 
19      21     conv2d_21 (Conv2D)                221,280    smul_s8_s8 
20      22     conv2d_22 (Conv2D)                393,232    smul_s8_s8 
21      23     eltwise_23 (Eltwise/add)            4,096      op_s8_s8 
22      24     conv2d_24 (Conv2D)                393,312    smul_s8_s8 
23      25     conv2d_26 (Conv2D)                 55,392    smul_s8_s8 
24      27     conv2d_27 (Conv2D)                147,480    smul_s8_s8 
25      28     conv2d_28 (Conv2D)                221,328    smul_s8_s8 
26      29     conv2d_29 (Conv2D)                 83,088    smul_s8_s8 
27      30     conv2d_30 (Conv2D)                221,208    smul_s8_s8 
28      31     eltwise_31 (Eltwise/add)            1,536      op_s8_s8 
29      32     conv2d_32 (Conv2D)                221,328    smul_s8_s8 
30      33     conv2d_33 (Conv2D)                 83,088    smul_s8_s8 
31      34     conv2d_34 (Conv2D)                221,208    smul_s8_s8 
32      35     eltwise_35 (Eltwise/add)            1,536      op_s8_s8 
33      36     conv2d_36 (Conv2D)                221,328    smul_s8_s8 
34      37     conv2d_37 (Conv2D)                 83,088    smul_s8_s8 
35      38     conv2d_38 (Conv2D)                221,208    smul_s8_s8 
36      39     eltwise_39 (Eltwise/add)            1,536      op_s8_s8 
37      40     conv2d_40 (Conv2D)                221,328    smul_s8_s8 
38      41     conv2d_41 (Conv2D)                 83,088    smul_s8_s8 
39      42     conv2d_42 (Conv2D)                294,944    smul_s8_s8 
40      43     conv2d_43 (Conv2D)                393,408    smul_s8_s8 
41      44     conv2d_44 (Conv2D)                110,784    smul_s8_s8 
42      45     conv2d_45 (Conv2D)                393,248    smul_s8_s8 
43      46     eltwise_46 (Eltwise/add)            2,048      op_s8_s8 
44      47     conv2d_47 (Conv2D)                393,408    smul_s8_s8 
45      48     conv2d_48 (Conv2D)                110,784    smul_s8_s8 
46      49     conv2d_49 (Conv2D)                393,248    smul_s8_s8 
47      50     eltwise_50 (Eltwise/add)            2,048      op_s8_s8 
48      51     conv2d_51 (Conv2D)                393,408    smul_s8_s8 
49      52     conv2d_53 (Conv2D)                 27,840    smul_s8_s8 
50      54     conv2d_54 (Conv2D)                172,088    smul_s8_s8 
51      55     conv2d_55 (Conv2D)                301,392    smul_s8_s8 
52      56     conv2d_56 (Conv2D)                 48,720    smul_s8_s8 
53      57     conv2d_57 (Conv2D)                301,112    smul_s8_s8 
54      58     eltwise_58 (Eltwise/add)              896      op_s8_s8 
55      59     conv2d_59 (Conv2D)                301,392    smul_s8_s8 
56      60     conv2d_60 (Conv2D)                 48,720    smul_s8_s8 
57      61     conv2d_61 (Conv2D)                301,112    smul_s8_s8 
58      62     eltwise_62 (Eltwise/add)              896      op_s8_s8 
59      63     conv2d_63 (Conv2D)                301,392    smul_s8_s8 
60      64     conv2d_64 (Conv2D)                 48,720    smul_s8_s8 
61      65     conv2d_65 (Conv2D)                602,224    smul_s8_s8 
62      66     conv2d_66 (Conv2D)              2,295,040    smul_s8_s8 
63      67     pool_67 (Pool)                     20,480    smul_s8_s8 
64      68     gemm_68 (Dense)                     1,281    smul_s8_s8 
65      69     nl_69 (Nonlinearity)                    1      op_s8_s8 
66      70     conversion_70 (Conversion)              2   smul_s8_f32 
------- ------ ---------------------------- ------------ ------------- 
total                                         19,094,660 

Number of operation types
---------------- ------------ ----------- 
operation type              #           % 
---------------- ------------ ----------- 
smul_u8_s8             98,304        0.5% 
smul_s8_s8         18,969,473       99.3% 
op_s8_s8               26,881        0.1% 
smul_s8_f32                 2        0.0% 

Complexity report (model)
------ -------------------------------------- ------------------------- ------------------------- ------ 
m_id   name                                   c_macc                    c_rom                     c_id   
------ -------------------------------------- ------------------------- ------------------------- ------ 
0      serving_default_input_10               |                  0.5%   |                  0.0%   [0]    
1      conv2d_1                               ||||||||||||       9.3%   |                  0.1%   [1]    
2      conv2d_2                               ||||               3.1%   |                  0.1%   [2]    
3      conv2d_3                               ||||               2.7%   |                  0.0%   [3]    
4      conv2d_4                               |||||||||||        8.2%   |                  0.1%   [4]    
5      pad_5                                  |||                2.3%   |                  0.2%   [5]    
7      conv2d_7                               |||                2.1%   |                  0.1%   [6]    
8      conv2d_8                               |||                2.1%   |                  0.1%   [7]    
9      conv2d_9                               |||                2.3%   |                  0.2%   [8]    
10     conv2d_10                              |||                2.1%   |                  0.1%   [9]    
11     eltwise_11                             |                  0.0%   |                  0.0%   [10]   
12     conv2d_12                              |||                2.1%   |                  0.1%   [11]   
13     pad_13                                 |                  0.6%   |                  0.2%   [12]   
15     conv2d_15                              ||                 1.0%   |                  0.2%   [13]   
16     conv2d_16                              |||                2.1%   |                  0.5%   [14]   
17     conv2d_17                              ||                 1.2%   |                  0.3%   [15]   
18     conv2d_18                              |||                2.1%   |                  0.4%   [16]   
19     eltwise_19                             |                  0.0%   |                  0.0%   [17]   
20     conv2d_20                              |||                2.1%   |                  0.5%   [18]   
21     conv2d_21                              ||                 1.2%   |                  0.3%   [19]   
22     conv2d_22                              |||                2.1%   |                  0.4%   [20]   
23     eltwise_23                             |                  0.0%   |                  0.0%   [21]   
24     conv2d_24                              |||                2.1%   |                  0.5%   [22]   
25     pad_25                                 |                  0.3%   |                  0.3%   [23]   
27     conv2d_27                              |                  0.8%   |                  0.6%   [24]   
28     conv2d_28                              ||                 1.2%   |                  1.0%   [25]   
29     conv2d_29                              |                  0.4%   |                  0.5%   [26]   
30     conv2d_30                              ||                 1.2%   |                  0.9%   [27]   
31     eltwise_31                             |                  0.0%   |                  0.0%   [28]   
32     conv2d_32                              ||                 1.2%   |                  1.0%   [29]   
33     conv2d_33                              |                  0.4%   |                  0.5%   [30]   
34     conv2d_34                              ||                 1.2%   |                  0.9%   [31]   
35     eltwise_35                             |                  0.0%   |                  0.0%   [32]   
36     conv2d_36                              ||                 1.2%   |                  1.0%   [33]   
37     conv2d_37                              |                  0.4%   |                  0.5%   [34]   
38     conv2d_38                              ||                 1.2%   |                  0.9%   [35]   
39     eltwise_39                             |                  0.0%   |                  0.0%   [36]   
40     conv2d_40                              ||                 1.2%   |                  1.0%   [37]   
41     conv2d_41                              |                  0.4%   |                  0.5%   [38]   
42     conv2d_42                              ||                 1.5%   |                  1.2%   [39]   
43     conv2d_43                              |||                2.1%   |                  1.7%   [40]   
44     conv2d_44                              |                  0.6%   |                  0.6%   [41]   
45     conv2d_45                              |||                2.1%   |                  1.5%   [42]   
46     eltwise_46                             |                  0.0%   |                  0.0%   [43]   
47     conv2d_47                              |||                2.1%   |                  1.7%   [44]   
48     conv2d_48                              |                  0.6%   |                  0.6%   [45]   
49     conv2d_49                              |||                2.1%   |                  1.5%   [46]   
50     eltwise_50                             |                  0.0%   |                  0.0%   [47]   
51     conv2d_51                              |||                2.1%   |                  1.7%   [48]   
52     pad_52                                 |                  0.1%   |                  0.6%   [49]   
54     conv2d_54                              ||                 0.9%   ||                 2.7%   [50]   
55     conv2d_55                              ||                 1.6%   |||                4.9%   [51]   
56     conv2d_56                              |                  0.3%   |                  1.1%   [52]   
57     conv2d_57                              ||                 1.6%   ||                 4.6%   [53]   
58     eltwise_58                             |                  0.0%   |                  0.0%   [54]   
59     conv2d_59                              ||                 1.6%   |||                4.9%   [55]   
60     conv2d_60                              |                  0.3%   |                  1.1%   [56]   
61     conv2d_61                              ||                 1.6%   ||                 4.6%   [57]   
62     eltwise_62                             |                  0.0%   |                  0.0%   [58]   
63     conv2d_63                              ||                 1.6%   |||                4.9%   [59]   
64     conv2d_64                              |                  0.3%   |                  1.1%   [60]   
65     conv2d_65                              ||||               3.2%   ||||               9.3%   [61]   
66     conv2d_66                              ||||||||||||||||  12.0%   ||||||||||||||||  36.1%   [62]   
67     pool_67                                |                  0.1%   |                  0.0%   [63]   
68     mobilenet_v2_alpha_0_35_dense_MatMul   |                  0.0%   |                  0.3%   [64]   
69     nl_69                                  |                  0.0%   |                  0.0%   [65]   
70     conversion_70                          |                  0.0%   |                  0.0%   [66]   
------ -------------------------------------- ------------------------- ------------------------- ------ 
macc=19,094,660 weights=411,492 act=266,292 ram_io=49,156
 
 Requested memory size by section - "stm32f4" target
 ------------------------------ -------- --------- -------- --------- 
 module                             text    rodata     data       bss 
 ------------------------------ -------- --------- -------- --------- 
 network.o                         4,284    38,268   26,472       784 
 NetworkRuntime1010_CM4_GCC.a     26,568         0        0         0 
 network_data.o                       48        16       88         0 
 lib (toolchain)*                  4,044        24        0         0 
 ------------------------------ -------- --------- -------- --------- 
 RT total**                       34,944    38,308   26,560       784 
 ------------------------------ -------- --------- -------- --------- 
 weights                               0   411,496        0         0 
 activations                           0         0        0   266,292 
 io                                    0         0        0    49,156 
 ------------------------------ -------- --------- -------- --------- 
 TOTAL                            34,944   449,804   26,560   316,232 
 ------------------------------ -------- --------- -------- --------- 
 *  toolchain objects (libm/libgcc*)
 ** RT AI runtime objects (kernels+infrastructure)
  
  Summary - "stm32f4" target
  --------------------------------------------------
               FLASH (ro)      %*   RAM (rw)      % 
  --------------------------------------------------
  RT total         99,812   19.5%     27,344   8.0% 
  --------------------------------------------------
  TOTAL           511,308            342,792        
  --------------------------------------------------
  *  rt/total


Generated files (7)
--------------------------------------------------------------- 
C:\Users\PC\.stm32cubemx\network_output\network_data_params.h   
C:\Users\PC\.stm32cubemx\network_output\network_data_params.c   
C:\Users\PC\.stm32cubemx\network_output\network_data.h          
C:\Users\PC\.stm32cubemx\network_output\network_data.c          
C:\Users\PC\.stm32cubemx\network_output\network_config.h        
C:\Users\PC\.stm32cubemx\network_output\network.h               
C:\Users\PC\.stm32cubemx\network_output\network.c               
